2023-12-09 01:31:44,428 ----------------------------------------------------------------------------------------------------
2023-12-09 01:31:44,430 Model: "TextClassifier(
  (embeddings): TransformerDocumentEmbeddings(
    (model): AlbertModel(
      (embeddings): AlbertEmbeddings(
        (word_embeddings): Embedding(21129, 128)
        (position_embeddings): Embedding(512, 128)
        (token_type_embeddings): Embedding(2, 128)
        (LayerNorm): LayerNorm((128,), eps=1e-12, elementwise_affine=True)
        (dropout): Dropout(p=0.0, inplace=False)
      )
      (encoder): AlbertTransformer(
        (embedding_hidden_mapping_in): Linear(in_features=128, out_features=312, bias=True)
        (albert_layer_groups): ModuleList(
          (0): AlbertLayerGroup(
            (albert_layers): ModuleList(
              (0): AlbertLayer(
                (full_layer_layer_norm): LayerNorm((312,), eps=1e-12, elementwise_affine=True)
                (attention): AlbertAttention(
                  (query): Linear(in_features=312, out_features=312, bias=True)
                  (key): Linear(in_features=312, out_features=312, bias=True)
                  (value): Linear(in_features=312, out_features=312, bias=True)
                  (attention_dropout): Dropout(p=0.0, inplace=False)
                  (output_dropout): Dropout(p=0.0, inplace=False)
                  (dense): Linear(in_features=312, out_features=312, bias=True)
                  (LayerNorm): LayerNorm((312,), eps=1e-12, elementwise_affine=True)
                )
                (ffn): Linear(in_features=312, out_features=1248, bias=True)
                (ffn_output): Linear(in_features=1248, out_features=312, bias=True)
                (activation): GELUActivation()
                (dropout): Dropout(p=0.0, inplace=False)
              )
            )
          )
        )
      )
      (pooler): Linear(in_features=312, out_features=312, bias=True)
      (pooler_activation): Tanh()
    )
  )
  (decoder): Linear(in_features=312, out_features=2, bias=True)
  (dropout): Dropout(p=0.0, inplace=False)
  (locked_dropout): LockedDropout(p=0.0)
  (word_dropout): WordDropout(p=0.0)
  (loss_function): CrossEntropyLoss()
  (weights): {0: 0.7710010687566797, 1: 1.0}
  (weight_tensor) tensor([1., 1.])
)"
2023-12-09 01:31:44,430 ----------------------------------------------------------------------------------------------------
…
